…
 'class_name_to_label': {'Dementia': 2, 'MCI': 1, 'Normal': 0},
 'clip_grad_norm': 1.0,
 'criterion': 'cross-entropy',
 'crop_multiple': 4,
 'crop_timing_analysis': False,
 'cwd': '/home/imkbsz/workspace/eeg_analysis',
 'dataset_name': 'CAUEEG dataset',
 'dataset_path': 'local/dataset/caueeg-dataset/',
 'ddp': True,
 'ddp_size': 4,
 'device': device(type='cuda', index=0),
 'distil_alpha': 0.5,
 'distil_tau': 3,
 'distil_teacher': 'va9swnif',
 'distil_teacher_criterion': 'cross-entropy',
 'distil_teacher_model': DistributedDataParallel(
  (module): ResNet1D(
    (input_stage): Sequential(
      (0): Conv1d(20, 64, kernel_size=(41,), stride=(9,), padding=(20,), bias=False)
      (1): BatchNorm1d(64, eps=1e-05, momentum=0.1, affine=True, track_running_stats=True)
      (2): ReLU()
    )
    (conv_stage1): Sequential(
      (0): BottleneckBlock1D(
        (conv1): Conv1d(64, 128, kernel_size=(1,), stride=(1,), bias=False)
        (norm1): BatchNorm1d(128, eps=1e-05, momentum=0.1, affine=True, track_running_stats=True)
        (act1): ReLU()
        (conv2): Conv1d(128, 128, kernel_size=(9,), stride=(2,), padding=(4,), groups=32, bias=False)
        (norm2): BatchNorm1d(128, eps=1e-05, momentum=0.1, affine=True, track_running_stats=True)
        (act2): ReLU()
        (conv3): Conv1d(128, 256, kernel_size=(1,), stride=(1,), bias=False)
        (norm3): BatchNorm1d(256, eps=1e-05, momentum=0.1, affine=True, track_running_stats=True)
        (act3): ReLU()
        (downsample): Sequential(
          (0): Conv1d(64, 256, kernel_size=(1,), stride=(2,), bias=False)
          (1): BatchNorm1d(256, eps=1e-05, momentum=0.1, affine=True, track_running_stats=True)
        )
      )
      (1): BottleneckBlock1D(
        (conv1): Conv1d(256, 128, kernel_size=(1,), stride=(1,), bias=False)
        (norm1): BatchNorm1d(128, eps=1e-05, momentum=0.1, affine=True, track_running_stats=True)
        (act1): ReLU()
        (conv2): Conv1d(128, 128, kernel_size=(9,), stride=(1,), padding=(4,), groups=32, bias=False)
        (norm2): BatchNorm1d(128, eps=1e-05, momentum=0.1, affine=True, track_running_stats=True)
        (act2): ReLU()
        (conv3): Conv1d(128, 256, kernel_size=(1,), stride=(1,), bias=False)
        (norm3): BatchNorm1d(256, eps=1e-05, momentum=0.1, affine=True, track_running_stats=True)
        (act3): ReLU()
      )
      (2): BottleneckBlock1D(
        (conv1): Conv1d(256, 128, kernel_size=(1,), stride=(1,), bias=False)
        (norm1): BatchNorm1d(128, eps=1e-05, momentum=0.1, affine=True, track_running_stats=True)
        (act1): ReLU()
        (conv2): Conv1d(128, 128, kernel_size=(9,), stride=(1,), padding=(4,), groups=32, bias=False)
        (norm2): BatchNorm1d(128, eps=1e-05, momentum=0.1, affine=True, track_running_stats=True)
        (act2): ReLU()
        (conv3): Conv1d(128, 256, kernel_size=(1,), stride=(1,), bias=False)
        (norm3): BatchNorm1d(256, eps=1e-05, momentum=0.1, affine=True, track_running_stats=True)
        (act3): ReLU()
      )
    )
    (conv_stage2): Sequential(
      (0): BottleneckBlock1D(
        (conv1): Conv1d(256, 256, kernel_size=(1,), stride=(1,), bias=False)
        (norm1): BatchNorm1d(256, eps=1e-05, momentum=0.1, affine=True, track_running_stats=True)
        (act1): ReLU()
        (conv2): Conv1d(256, 256, kernel_size=(9,), stride=(2,), padding=(4,), groups=32, bias=False)
        (norm2): BatchNorm1d(256, eps=1e-05, momentum=0.1, affine=True, track_running_stats=True)
        (act2): ReLU()
        (conv3): Conv1d(256, 512, kernel_size=(1,), stride=(1,), bias=False)
        (norm3): BatchNorm1d(512, eps=1e-05, momentum=0.1, affine=True, track_running_stats=True)
        (act3): ReLU()
        (downsample): Sequential(
          (0): Conv1d(256, 512, kernel_size=(1,), stride=(2,), bias=False)
          (1): BatchNorm1d(512, eps=1e-05, momentum=0.1, affine=True, track_running_stats=True)
        )
      )
      (1): BottleneckBlock1D(
        (conv1): Conv1d(512, 256, kernel_size=(1,), stride=(1,), bias=False)
        (norm1): BatchNorm1d(256, eps=1e-05, momentum=0.1, affine=True, track_running_stats=True)
        (act1): ReLU()
        (conv2): Conv1d(256, 256, kernel_size=(9,), stride=(1,), padding=(4,), groups=32, bias=False)
        (norm2): BatchNorm1d(256, eps=1e-05, momentum=0.1, affine=True, track_running_stats=True)
        (act2): ReLU()
        (conv3): Conv1d(256, 512, kernel_size=(1,), stride=(1,), bias=False)
        (norm3): BatchNorm1d(512, eps=1e-05, momentum=0.1, affine=True, track_running_stats=True)
        (act3): ReLU()
      )
      (2): BottleneckBlock1D(
        (conv1): Conv1d(512, 256, kernel_size=(1,), stride=(1,), bias=False)
        (norm1): BatchNorm1d(256, eps=1e-05, momentum=0.1, affine=True, track_running_stats=True)
        (act1): ReLU()
        (conv2): Conv1d(256, 256, kernel_size=(9,), stride=(1,), padding=(4,), groups=32, bias=False)
        (norm2): BatchNorm1d(256, eps=1e-05, momentum=0.1, affine=True, track_running_stats=True)
        (act2): ReLU()
        (conv3): Conv1d(256, 512, kernel_size=(1,), stride=(1,), bias=False)
        (norm3): BatchNorm1d(512, eps=1e-05, momentum=0.1, affine=True, track_running_stats=True)
        (act3): ReLU()
      )
      (3): BottleneckBlock1D(
        (conv1): Conv1d(512, 256, kernel_size=(1,), stride=(1,), bias=False)
        (norm1): BatchNorm1d(256, eps=1e-05, momentum=0.1, affine=True, track_running_stats=True)
        (act1): ReLU()
        (conv2): Conv1d(256, 256, kernel_size=(9,), stride=(1,), padding=(4,), groups=32, bias=False)
        (norm2): BatchNorm1d(256, eps=1e-05, momentum=0.1, affine=True, track_running_stats=True)
        (act2): ReLU()
        (conv3): Conv1d(256, 512, kernel_size=(1,), stride=(1,), bias=False)
        (norm3): BatchNorm1d(512, eps=1e-05, momentum=0.1, affine=True, track_running_stats=True)
        (act3): ReLU()
      )
    )
    (conv_stage3): Sequential(
      (0): MaxPool1d(kernel_size=2, stride=2, padding=0, dilation=1, ceil_mode=False)
      (1): BottleneckBlock1D(
        (conv1): Conv1d(512, 512, kernel_size=(1,), stride=(1,), bias=False)
        (norm1): BatchNorm1d(512, eps=1e-05, momentum=0.1, affine=True, track_running_stats=True)
        (act1): ReLU()
        (conv2): Conv1d(512, 512, kernel_size=(9,), stride=(2,), padding=(4,), groups=32, bias=False)
        (norm2): BatchNorm1d(512, eps=1e-05, momentum=0.1, affine=True, track_running_stats=True)
        (act2): ReLU()
        (conv3): Conv1d(512, 1024, kernel_size=(1,), stride=(1,), bias=False)
        (norm3): BatchNorm1d(1024, eps=1e-05, momentum=0.1, affine=True, track_running_stats=True)
        (act3): ReLU()
        (downsample): Sequential(
          (0): Conv1d(512, 1024, kernel_size=(1,), stride=(2,), bias=False)
          (1): BatchNorm1d(1024, eps=1e-05, momentum=0.1, affine=True, track_running_stats=True)
        )
      )
      (2): BottleneckBlock1D(
        (conv1): Conv1d(1024, 512, kernel_size=(1,), stride=(1,), bias=False)
        (norm1): BatchNorm1d(512, eps=1e-05, momentum=0.1, affine=True, track_running_stats=True)
        (act1): ReLU()
        (conv2): Conv1d(512, 512, kernel_size=(9,), stride=(1,), padding=(4,), groups=32, bias=False)
        (norm2): BatchNorm1d(512, eps=1e-05, momentum=0.1, affine=True, track_running_stats=True)
        (act2): ReLU()
        (conv3): Conv1d(512, 1024, kernel_size=(1,), stride=(1,), bias=False)
        (norm3): BatchNorm1d(1024, eps=1e-05, momentum=0.1, affine=True, track_running_stats=True)
        (act3): ReLU()
      )
      (3): BottleneckBlock1D(
        (conv1): Conv1d(1024, 512, kernel_size=(1,), stride=(1,), bias=False)
        (norm1): BatchNorm1d(512, eps=1e-05, momentum=0.1, affine=True, track_running_stats=True)
        (act1): ReLU()
        (conv2): Conv1d(512, 512, kernel_size=(9,), stride=(1,), padding=(4,), groups=32, bias=False)
        (norm2): BatchNorm1d(512, eps=1e-05, momentum=0.1, affine=True, track_running_stats=True)
        (act2): ReLU()
        (conv3): Conv1d(512, 1024, kernel_size=(1,), stride=(1,), bias=False)
        (norm3): BatchNorm1d(1024, eps=1e-05, momentum=0.1, affine=True, track_running_stats=True)
        (act3): ReLU()
      )
      (4): BottleneckBlock1D(
        (conv1): Conv1d(1024, 512, kernel_size=(1,), stride=(1,), bias=False)
        (norm1): BatchNorm1d(512, eps=1e-05, momentum=0.1, affine=True, track_running_stats=True)
        (act1): ReLU()
        (conv2): Conv1d(512, 512, kernel_size=(9,), stride=(1,), padding=(4,), groups=32, bias=False)
        (norm2): BatchNorm1d(512, eps=1e-05, momentum=0.1, affine=True, track_running_stats=True)
        (act2): ReLU()
        (conv3): Conv1d(512, 1024, kernel_size=(1,), stride=(1,), bias=False)
        (norm3): BatchNorm1d(1024, eps=1e-05, momentum=0.1, affine=True, track_running_stats=True)
        (act3): ReLU()
      )
      (5): BottleneckBlock1D(
        (conv1): Conv1d(1024, 512, kernel_size=(1,), stride=(1,), bias=False)
        (norm1): BatchNorm1d(512, eps=1e-05, momentum=0.1, affine=True, track_running_stats=True)
        (act1): ReLU()
        (conv2): Conv1d(512, 512, kernel_size=(9,), stride=(1,), padding=(4,), groups=32, bias=False)
        (norm2): BatchNorm1d(512, eps=1e-05, momentum=0.1, affine=True, track_running_stats=True)
        (act2): ReLU()
        (conv3): Conv1d(512, 1024, kernel_size=(1,), stride=(1,), bias=False)
        (norm3): BatchNorm1d(1024, eps=1e-05, momentum=0.1, affine=True, track_running_stats=True)
        (act3): ReLU()
      )
      (6): BottleneckBlock1D(
        (conv1): Conv1d(1024, 512, kernel_size=(1,), stride=(1,), bias=False)
        (norm1): BatchNorm1d(512, eps=1e-05, momentum=0.1, affine=True, track_running_stats=True)
        (act1): ReLU()
        (conv2): Conv1d(512, 512, kernel_size=(9,), stride=(1,), padding=(4,), groups=32, bias=False)
        (norm2): BatchNorm1d(512, eps=1e-05, momentum=0.1, affine=True, track_running_stats=True)
        (act2): ReLU()
        (conv3): Conv1d(512, 1024, kernel_size=(1,), stride=(1,), bias=False)
        (norm3): BatchNorm1d(1024, eps=1e-05, momentum=0.1, affine=True, track_running_stats=True)
        (act3): ReLU()
      )
    )
    (conv_stage4): Sequential(
      (0): MaxPool1d(kernel_size=2, stride=2, padding=0, dilation=1, ceil_mode=False)
      (1): BottleneckBlock1D(
        (conv1): Conv1d(1024, 1024, kernel_size=(1,), stride=(1,), bias=False)
        (norm1): BatchNorm1d(1024, eps=1e-05, momentum=0.1, affine=True, track_running_stats=True)
        (act1): ReLU()
        (conv2): Conv1d(1024, 1024, kernel_size=(9,), stride=(2,), padding=(4,), groups=32, bias=False)
        (norm2): BatchNorm1d(1024, eps=1e-05, momentum=0.1, affine=True, track_running_stats=True)
        (act2): ReLU()
        (conv3): Conv1d(1024, 2048, kernel_size=(1,), stride=(1,), bias=False)
        (norm3): BatchNorm1d(2048, eps=1e-05, momentum=0.1, affine=True, track_running_stats=True)
        (act3): ReLU()
        (downsample): Sequential(
          (0): Conv1d(1024, 2048, kernel_size=(1,), stride=(2,), bias=False)
          (1): BatchNorm1d(2048, eps=1e-05, momentum=0.1, affine=True, track_running_stats=True)
        )
      )
      (2): BottleneckBlock1D(
        (conv1): Conv1d(2048, 1024, kernel_size=(1,), stride=(1,), bias=False)
        (norm1): BatchNorm1d(1024, eps=1e-05, momentum=0.1, affine=True, track_running_stats=True)
        (act1): ReLU()
        (conv2): Conv1d(1024, 1024, kernel_size=(9,), stride=(1,), padding=(4,), groups=32, bias=False)
        (norm2): BatchNorm1d(1024, eps=1e-05, momentum=0.1, affine=True, track_running_stats=True)
        (act2): ReLU()
        (conv3): Conv1d(1024, 2048, kernel_size=(1,), stride=(1,), bias=False)
        (norm3): BatchNorm1d(2048, eps=1e-05, momentum=0.1, affine=True, track_running_stats=True)
        (act3): ReLU()
      )
      (3): BottleneckBlock1D(
        (conv1): Conv1d(2048, 1024, kernel_size=(1,), stride=(1,), bias=False)
        (norm1): BatchNorm1d(1024, eps=1e-05, momentum=0.1, affine=True, track_running_stats=True)
        (act1): ReLU()
        (conv2): Conv1d(1024, 1024, kernel_size=(9,), stride=(1,), padding=(4,), groups=32, bias=False)
        (norm2): BatchNorm1d(1024, eps=1e-05, momentum=0.1, affine=True, track_running_stats=True)
        (act2): ReLU()
        (conv3): Conv1d(1024, 2048, kernel_size=(1,), stride=(1,), bias=False)
        (norm3): BatchNorm1d(2048, eps=1e-05, momentum=0.1, affine=True, track_running_stats=True)
        (act3): ReLU()
      )
    )
    (final_pool): AdaptiveAvgPool1d(output_size=1)
    (fc_stage): Sequential(
      (0): Sequential(
        (0): Linear(in_features=2049, out_features=1024, bias=False)
        (1): Dropout(p=0.12299636817829414, inplace=False)
        (2): BatchNorm1d(1024, eps=1e-05, momentum=0.1, affine=True, track_running_stats=True)
        (3): ReLU()
      )
      (1): Sequential(
        (0): Linear(in_features=1024, out_features=512, bias=False)
        (1): Dropout(p=0.12299636817829414, inplace=False)
        (2): BatchNorm1d(512, eps=1e-05, momentum=0.1, affine=True, track_running_stats=True)
        (3): ReLU()
      )
      (2): Sequential(
        (0): Linear(in_features=512, out_features=256, bias=False)
        (1): Dropout(p=0.12299636817829414, inplace=False)
        (2): BatchNorm1d(256, eps=1e-05, momentum=0.1, affine=True, track_running_stats=True)
        (3): ReLU()
      )
      (3): Linear(in_features=256, out_features=3, bias=True)
    )
  )
),
 'distil_teacher_preprocess': Sequential(
  (0): EegToDevice(device=cuda)
  (1): EegNormalizeAge(mean=tensor([71.1417], device='cuda:0'),std=tensor([9.7840], device='cuda:0'),eps=1e-08)
  (2): EegNormalizeMeanStd(mean=tensor([… device='cuda:0'),std=tensor([… device='cuda:0'),eps=1e-08)
),
 'distil_type': 'soft',
 'draw_result': True,
 'dropout': 0.12942536534224264,
…
 'class_label_to_name': ['Normal', 'MCI', 'Dementia'],
 'class_name_to_label': {'Dementia': 2, 'MCI': 1, 'Normal': 0},
 'clip_grad_norm': 1.0,
 'criterion': 'multi-bce',
 'crop_multiple': 4,
 'crop_timing_analysis': False,
 'cwd': '/home/imkbsz/workspace/eeg_analysis',
 'dataset_name': 'CAUEEG dataset',
 'dataset_path': 'local/dataset/caueeg-dataset/',
 'ddp': True,
 'ddp_size': 4,
 'device': device(type='cuda', index=0),
 'distil_alpha': 0.5,
 'distil_tau': 1.0,
 'distil_teacher': 'lo88puq7',
 'distil_teacher_criterion': 'multi-bce',
 'distil_teacher_model': DistributedDataParallel(
  (module): VGG2D(
    (conv_stage1): Sequential(
      (0): Conv2d(41, 64, kernel_size=(3, 3), stride=(1, 1), padding=(1, 1), bias=False)
      (1): BatchNorm2d(64, eps=1e-05, momentum=0.1, affine=True, track_running_stats=True)
      (2): GELU()
      (3): Conv2d(64, 64, kernel_size=(3, 3), stride=(1, 1), padding=(1, 1), bias=False)
      (4): BatchNorm2d(64, eps=1e-05, momentum=0.1, affine=True, track_running_stats=True)
      (5): GELU()
    )
    (conv_stage2): Sequential(
      (0): MaxPool2d(kernel_size=2, stride=2, padding=0, dilation=1, ceil_mode=False)
      (1): Conv2d(64, 128, kernel_size=(3, 3), stride=(1, 1), padding=(1, 1), bias=False)
      (2): BatchNorm2d(128, eps=1e-05, momentum=0.1, affine=True, track_running_stats=True)
      (3): GELU()
      (4): Conv2d(128, 128, kernel_size=(3, 3), stride=(1, 1), padding=(1, 1), bias=False)
      (5): BatchNorm2d(128, eps=1e-05, momentum=0.1, affine=True, track_running_stats=True)
      (6): GELU()
    )
    (conv_stage3): Sequential(
      (0): MaxPool2d(kernel_size=2, stride=2, padding=0, dilation=1, ceil_mode=False)
      (1): Conv2d(128, 256, kernel_size=(3, 3), stride=(1, 1), padding=(1, 1), bias=False)
      (2): BatchNorm2d(256, eps=1e-05, momentum=0.1, affine=True, track_running_stats=True)
      (3): GELU()
      (4): Conv2d(256, 256, kernel_size=(3, 3), stride=(1, 1), padding=(1, 1), bias=False)
      (5): BatchNorm2d(256, eps=1e-05, momentum=0.1, affine=True, track_running_stats=True)
      (6): GELU()
      (7): Conv2d(256, 256, kernel_size=(3, 3), stride=(1, 1), padding=(1, 1), bias=False)
      (8): BatchNorm2d(256, eps=1e-05, momentum=0.1, affine=True, track_running_stats=True)
      (9): GELU()
      (10): Conv2d(256, 256, kernel_size=(3, 3), stride=(1, 1), padding=(1, 1), bias=False)
      (11): BatchNorm2d(256, eps=1e-05, momentum=0.1, affine=True, track_running_stats=True)
      (12): GELU()
    )
    (conv_stage4): Sequential(
      (0): MaxPool2d(kernel_size=2, stride=2, padding=0, dilation=1, ceil_mode=False)
      (1): Conv2d(256, 512, kernel_size=(3, 3), stride=(1, 1), padding=(1, 1), bias=False)
      (2): BatchNorm2d(512, eps=1e-05, momentum=0.1, affine=True, track_running_stats=True)
      (3): GELU()
      (4): Conv2d(512, 512, kernel_size=(3, 3), stride=(1, 1), padding=(1, 1), bias=False)
      (5): BatchNorm2d(512, eps=1e-05, momentum=0.1, affine=True, track_running_stats=True)
      (6): GELU()
      (7): Conv2d(512, 512, kernel_size=(3, 3), stride=(1, 1), padding=(1, 1), bias=False)
      (8): BatchNorm2d(512, eps=1e-05, momentum=0.1, affine=True, track_running_stats=True)
      (9): GELU()
      (10): Conv2d(512, 512, kernel_size=(3, 3), stride=(1, 1), padding=(1, 1), bias=False)
      (11): BatchNorm2d(512, eps=1e-05, momentum=0.1, affine=True, track_running_stats=True)
      (12): GELU()
    )
    (conv_stage5): Sequential(
      (0): MaxPool2d(kernel_size=2, stride=2, padding=0, dilation=1, ceil_mode=False)
      (1): Conv2d(512, 512, kernel_size=(3, 3), stride=(1, 1), padding=(1, 1), bias=False)
      (2): BatchNorm2d(512, eps=1e-05, momentum=0.1, affine=True, track_running_stats=True)
      (3): GELU()
      (4): Conv2d(512, 512, kernel_size=(3, 3), stride=(1, 1), padding=(1, 1), bias=False)
      (5): BatchNorm2d(512, eps=1e-05, momentum=0.1, affine=True, track_running_stats=True)
      (6): GELU()
      (7): Conv2d(512, 512, kernel_size=(3, 3), stride=(1, 1), padding=(1, 1), bias=False)
      (8): BatchNorm2d(512, eps=1e-05, momentum=0.1, affine=True, track_running_stats=True)
      (9): GELU()
      (10): Conv2d(512, 512, kernel_size=(3, 3), stride=(1, 1), padding=(1, 1), bias=False)
      (11): BatchNorm2d(512, eps=1e-05, momentum=0.1, affine=True, track_running_stats=True)
      (12): GELU()
    )
    (final_pool): AdaptiveAvgPool2d(output_size=(1, 1))
    (fc_stage): Sequential(
      (0): Sequential(
        (0): Linear(in_features=512, out_features=256, bias=False)
        (1): Dropout(p=0.20149124331753415, inplace=False)
        (2): BatchNorm1d(256, eps=1e-05, momentum=0.1, affine=True, track_running_stats=True)
        (3): GELU()
      )
      (1): Linear(in_features=256, out_features=3, bias=True)
    )
  )
),
 'distil_teacher_preprocess': Sequential(
  (0): EegToDevice(device=cuda)
  (1): EegNormalizeAge(mean=tensor([71.2425], device='cuda:0'),std=tensor([9.5208], device='cuda:0'),eps=1e-08)
  (2): EegNormalizeMeanStd(mean=tensor([ … device='cuda:0'),std=tensor([… device='cuda:0'),eps=1e-08)
  (3): EegSpectrogram(n_fft=179, complex_mode=as_real, stft_kwargs={'hop_length': 45})
…
